{"data": {}, "embedding": {"vocabulary_size": 71, "embedding_dimension": 100}, "hiperparameter": {"model_summary": "Model: \"sequential\"\n_________________________________________________________________\nLayer (type)                 Output Shape              Param #   \n=================================================================\nembedding (Embedding)        (None, 200, 100)          7200      \n_________________________________________________________________\nconv1d (Conv1D)              (None, 198, 128)          38528     \n_________________________________________________________________\nmax_pooling1d (MaxPooling1D) (None, 66, 128)           0         \n_________________________________________________________________\nconv1d_1 (Conv1D)            (None, 66, 256)           229632    \n_________________________________________________________________\nconv1d_2 (Conv1D)            (None, 66, 96)            122976    \n_________________________________________________________________\nconv1d_3 (Conv1D)            (None, 66, 128)           36992     \n_________________________________________________________________\nmax_pooling1d_1 (MaxPooling1 (None, 22, 128)           0         \n_________________________________________________________________\nconv1d_4 (Conv1D)            (None, 22, 196)           125636    \n_________________________________________________________________\nconv1d_5 (Conv1D)            (None, 22, 128)           75392     \n_________________________________________________________________\nconv1d_6 (Conv1D)            (None, 22, 96)            61536     \n_________________________________________________________________\nconv1d_7 (Conv1D)            (None, 22, 128)           36992     \n_________________________________________________________________\nconv1d_8 (Conv1D)            (None, 22, 196)           125636    \n_________________________________________________________________\nconv1d_9 (Conv1D)            (None, 22, 128)           175744    \n_________________________________________________________________\nconv1d_10 (Conv1D)           (None, 22, 96)            36960     \n_________________________________________________________________\nmax_pooling1d_2 (MaxPooling1 (None, 7, 96)             0         \n_________________________________________________________________\nconv1d_11 (Conv1D)           (None, 7, 196)            94276     \n_________________________________________________________________\nconv1d_12 (Conv1D)           (None, 7, 128)            175744    \n_________________________________________________________________\nmax_pooling1d_3 (MaxPooling1 (None, 2, 128)            0         \n_________________________________________________________________\nconv1d_13 (Conv1D)           (None, 2, 196)            125636    \n_________________________________________________________________\nconv1d_14 (Conv1D)           (None, 2, 128)            175744    \n_________________________________________________________________\nconv1d_15 (Conv1D)           (None, 2, 96)             36960     \n_________________________________________________________________\nflatten (Flatten)            (None, 192)               0         \n_________________________________________________________________\ndense (Dense)                (None, 2)                 386       \n=================================================================\nTotal params: 1,681,970\nTrainable params: 1,681,970\nNon-trainable params: 0\n_________________________________________________________________\n", "epoch": 1, "train_batch_size": 5000, "test_batch_size": 5000, "sequence_length": 200}, "test_result": {"test_time": 10.393789529800415, "report": "              precision    
…
